HongYi Lee/HW1/models/model.pth (torch, 25887 bytes, 3 tensors)

net.0.weight f4 [64, 93]
0	0x3d0b70cb	0.034043115
1	0x3d29618d	0.041352797
2	0xbb4fa0de	-0.0031681578
3	0xbdefb1c6	-0.117038295
4	0xbc9b95d2	-0.018992338
5	0xbc7c18cc	-0.015386771
6	0xbc39e5dc	-0.011346307
7	0x3d26aef7	0.040694203
8	0xbd8abfcc	-0.067748636
9	0xbcc7808f	-0.024353294
10	0xbdf02d0d	-0.11727343
11	0x3d15cb15	0.036570627
12	0xbc19436e	-0.009354455
13	0x3d22dc6f	0.039761003
14	0xbdd03854	-0.10166994
15	0xbddcc235	-0.107792296
16	0x3d4b494c	0.04963045
17	0x3dbc1992	0.09184565
18	0x3b5aabee	0.0033366638
19	0xbccebb34	-0.02523575
20	0x3ddc0ba3	0.10744407
21	0x3c9b8e97	0.01898889
22	0x3e0ed5c9	0.1394874
23	0x3e20b7bc	0.15695089
24	0xbda4c02c	-0.080444664
25	0xbddc79e2	-0.10765435
26	0x3b9cfc7f	0.004790842
27	0x3dc3e656	0.095654175
28	0x3dab3599	0.08359832
29	0xbb1e34d9	-0.0024140386
30	0x3d6aed8a	0.05735544
31	0x3e0b4978	0.13602245
32	0xbcd4da45	-0.025982985
33	0xb777c12b	-1.4767323e-05
34	0x3d9cf905	0.07664684
35	0x3d742bdb	0.059612136
36	0xbbf0113b	-0.007326273
37	0xbd5242dd	-0.051333297
38	0xbcf30f75	-0.029670456
39	0x3b0e2008	0.0021686573
40	0x3d719def	0.058988508
41	0xbd90db47	-0.07073074
42	0x3dca51ed	0.09878907
43	0x3c8bb455	0.017053762
44	0x3d9fc9a6	0.07802133
45	0xbdaf679b	-0.08564683
46	0xbd6eea3f	-0.058328863
47	0x3d8a63a5	0.06757287
48	0xbceb131a	-0.028695632
49	0x3da72e38	0.081631124
50	0x3d57015d	0.052491535
51	0xbd9dbaec	-0.07701668
52	0xbe80023d	-0.25001708
53	0xbc4aa10e	-0.0123675
54	0x3d984ea5	0.07436875
55	0x3c71ad08	0.0147507265
56	0xbd09caec	-0.033640787
57	0xbd0dff8f	-0.034667548
58	0x3dfe08ec	0.124040455
59	0x3d1f8ad2	0.03895075
60	0xbd1427b5	-0.03617068
61	0x3d9655bd	0.07340572
62	0x3d9c7e12	0.076412335
63	0xbd239559	-0.03993735
64	0xbde17b22	-0.11009814
65	0xbd6573cb	-0.056018632
66	0xbcbea31f	-0.023271142
67	0x3ce686e7	0.028140498
68	0x3d20bc4b	0.03924207
69	0xbde39199	-0.11111755
70	0xbe5abf63	-0.2136207
71	0x3dcfadc4	0.10140565
72	0x3d3fd2bb	0.046831828
73	0x3dc622a0	0.09674573
74	0x3d0a43f5	0.033756215
75	0x3db00a96	0.08595769
76	0xbd85bb58	-0.065298736
77	0x3ca8bfe4	0.020599313
78	0x3d9e0efc	0.07717702
79	0xbdce3de1	-0.10070396
80	0x3ddee2bf	0.10883092
81	0xbd1a56ee	-0.03768056
82	0xbd95e773	-0.07319536
83	0xbe066254	-0.13123447
84	0xbd102771	-0.035193864
85	0x3cf8f35b	0.030389478
86	0x3db555fa	0.08854289
87	0x3ca4829a	0.020081807
88	0xbe51f2d0	-0.20502782
89	0x3b896598	0.004193019
90	0xbcb4359e	-0.021998223
91	0xbd996e00	-0.07491684
92	0x3ddbd3ff	0.107337944
93	0xbe3e94bd	-0.18611427
94	0x3db97a9f	0.09056591
95	0xbd9ab677	-0.07554334
96	0xbce26df8	-0.027640328
97	0xbcf55855	-0.029949347
98	0xbe029c88	-0.12755024
99	0xbd99d758	-0.07511777
100	0xbd1c8a11	-0.038217608
101	0x3da6ed63	0.08150747
102	0x3e2b2bb4	0.1671589
103	0xbd24b613	-0.040212702
104	0x3d2d3c84	0.04229404
105	0x3d15d698	0.036581606
106	0x3cb2adef	0.021811454
107	0x3dacf26b	0.08444675
108	0xbdc9d3c8	-0.09854847
109	0x3c8bf0cc	0.017082594
110	0x3deb35d3	0.114848755
111	0xbd3872cd	-0.045031358
112	0x3d74550c	0.05965142
113	0xbd6f6de8	-0.058454424
114	0xbd3834c6	-0.044972204
115	0x3da55027	0.080719285
116	0x3ce78f6f	0.028266637
117	0xbdecf2fc	-0.11569783
118	0xbb046538	-0.0020201933
119	0x3ce42d06	0.0278535
120	0x3d6c63a2	0.057712205
121	0xbdc5c987	-0.09657579
122	0xbd020c78	-0.031750172
123	0xbd11cab0	-0.03559369
124	0xbd1e739c	-0.038684472
125	0x3d91051d	0.070810534
126	0x3d3e499b	0.046456914
127	0xbcd0383f	-0.025417445
128	0xbd8ce151	-0.06878913
129	0xbdd0846f	-0.1018151
130	0xbdbe5cdb	-0.092950545
131	0x3d2b10fd	0.04176425
132	0x3df07193	0.117404126
133	0xbe78270d	-0.24233647
134	0xbe1d0904	-0.1533547
135	0xbe04d916	-0.12973437
136	0xbd81d24d	-0.0633894
137	0xbdab15fb	-0.08353802
138	0xbe2ede3f	-0.17076968
139	0x3ca16db7	0.019705636
140	0x3d7517b2	0.05983705
141	0xbd62cd06	-0.055371307
142	0x3defe015	0.11712662
143	0xbdccbf1b	-0.09997388
144	0x3d024f28	0.03181377
145	0xbcfd83c6	-0.030946624
146	0xbd87c51e	-0.06629394
147	0xbe1c6203	-0.15271764
148	0xbe765b26	-0.24058208
149	0xbdb41489	-0.08792979
150	0xbe455607	-0.19271098
151	0xbc8396c8	-0.016063109
152	0xbe088e1d	-0.13335462
153	0xbd04c6fa	-0.03241632
154	0xbe475d22	-0.19469121
155	0xbcbde276	-0.023179274
156	0xbdc81947	-0.09770446
157	0x3de19c5a	0.1101615
158	0xbc86313f	-0.016380904
159	0x3e21699b	0.15762942
160	0x3e3b0dc8	0.18266976
161	0xbe14c5da	-0.145286
162	0x3e036fed	0.12835665
163	0x3ded3b04	0.11583522
164	0xbc7bed82	-0.0153764505
165	0xbd2f810b	-0.042847674
166	0xbd8b008e	-0.06787215
167	0xbc297c97	-0.010344646
168	0xbe61972e	-0.22030327
169	0xbd2b6a6f	-0.04184955
170	0xbdba3b48	-0.09093338
171	0xbe07d07a	-0.13263121
172	0xbc7d9041	-0.015476287
173	0x3d987dcb	0.07445868
174	0xbde0d2ea	-0.10977729
175	0x3d32f4b3	0.043690395
176	0x3d721528	0.059102207
177	0x3df0fdfa	0.11767192
178	0x3e4b2d54	0.1984151
179	0xbde7587c	-0.11296174
180	0x3df5aea8	0.11996204
181	0x3e01db35	0.12681277
182	0xbe226473	-0.15858631
183	0xbe03de4e	-0.12877771
184	0xbccbefe2	-0.024894658
185	0xbd280ec2	-0.0410297
186	0x3c8bfe92	0.017089162
187	0xbdb142b9	-0.086553045
188	0xbe0bd2a8	-0.13654578
189	0x3d52bead	0.051451374
190	0xbd523549	-0.051320348
191	0x3dfece80	0.124417305
192	0x3d3b07bf	0.045661684
193	0x3c09dee8	0.008414961
194	0x3d9a3c57	0.0753104
195	0x3d0e2162	0.034699805
196	0x3e167d30	0.14696193
197	0x3d9190a4	0.07107666
198	0x3dc55d97	0.096369915
199	0xbd585403	-0.052814495
200	0x3e136d18	0.14397085
201	0xbda2b03f	-0.079437725
202	0x3d232905	0.03983404
203	0xbd3741ee	-0.04474061
204	0x3d8b16de	0.06791471
205	0xbdb06612	-0.08613218
206	0xba88e134	-0.0010443092
207	0x3c9776f7	0.018489344
208	0xbd8dfca5	-0.06932954
209	0xbc8eae6c	-0.017417155
210	0xbce7bc94	-0.028288163
211	0x3d1868f3	0.037209462
212	0xbe038f32	-0.12847593
213	0xbd8a6e43	-0.06759312
214	0xbc245112	-0.010029094
215	0x3b00dafc	0.0019661775
216	0xbd82f82b	-0.063949905
217	0x3e0c6bfe	0.13713071
218	0x3ccd6fea	0.025077779
219	0xbd6ddbe6	-0.05807104
220	0x3c67232e	0.014107509
221	0xbbe59385	-0.007006111
222	0x3da1c1e3	0.07898309
223	0x3b50b46c	0.003184582
224	0xbe000b8f	-0.12504409
225	0x3dcbe060	0.099549055
226	0xbde317ee	-0.110885486
227	0x3e0a3619	0.13497199
228	0x3d088271	0.033327524
229	0xbd90cf1f	-0.07070755
230	0xbbf68a66	-0.0075238226
231	0x3d5e6b98	0.05430183
232	0xbd0acf89	-0.033889327
233	0x3e1329cd	0.14371414
234	0xbe180108	-0.14844143
235	0x3d281956	0.041039787
236	0xbd3a0d54	-0.045422867
237	0x3b4732d5	0.0030395288
238	0x3dff07fa	0.12452693
239	0x3e0d0c6e	0.13774273
240	0xbc4bd193	-0.012440103
241	0xbd67ed7c	-0.056622967
242	0xba040278	-0.0005035768
243	0x3c63bdd0	0.013900235
244	0xbd7c9a85	-0.0616708
245	0xbe17318d	-0.14764996
246	0x3cac2cc9	0.021017449
247	0x3ac9da48	0.0015400136
248	0xbc386f3c	-0.011256989
249	0xbc6f919f	-0.014622121
250	0x3dbb8346	0.09155898
251	0x3dd6e532	0.10492934
252	0xbda31b15	-0.0796415
253	0x3e03feef	0.12890218
254	0xbe115eda	-0.14196339
255	0xbd57036c	-0.052493498

net.0.bias f4 [64]
0	0x3e9b80f4	0.3037182
1	0xbe1ec757	-0.1550573
2	0x3e935390	0.2877469
3	0xbd7264ac	-0.05917804
4	0x3e847559	0.2587078
5	0x3e59872a	0.21242967
6	0x3e4ad7aa	0.19808832
7	0x3f0dc4b6	0.5537828
8	0x3ecd4a9f	0.40095994
9	0xbcf6fe02	-0.030150417
10	0x3eb87018	0.3602302
11	0x3e6df5c5	0.23238285
12	0xbe82ddcb	-0.2555984
13	0x3f1f0735	0.6212037
14	0x3eccbe3f	0.39988896
15	0x3e0401bf	0.12891291
16	0x3f4e5877	0.80603737
17	0xbcb0c6a4	-0.021579094
18	0x3cb9934a	0.02265324
19	0x3ec5f0cf	0.38660285
20	0x3e902089	0.28149822
21	0xbd9c1ec3	-0.07623055
22	0x3de4f2e9	0.11179144
23	0x3e2738ae	0.16330215
24	0x3e88493f	0.26618382
25	0x3e95f27c	0.29286563
26	0x3f3b87d4	0.7325413
27	0x3e7627cb	0.24038617
28	0x3f61c70b	0.8819434
29	0xbc176a6c	-0.009241682
30	0x3dd782c7	0.10522991
31	0x3ed83327	0.42226526
32	0xbc5a0763	-0.013307425
33	0x3dd2aaa8	0.10286456
34	0x3f2c8192	0.6738521
35	0x3f173f04	0.5908053
36	0x3eca777b	0.3954428
37	0x3ea60bb8	0.32430816
38	0x3edae7a7	0.42754862
39	0x3e5eb339	0.21748056
40	0x3f93d954	1.1550698
41	0x3ebdaaff	0.37044522
42	0x3f58d790	0.8470392
43	0x3efbf5f2	0.4921108
44	0x3eb5cf2b	0.3550962
45	0x3e8be196	0.27320546
46	0x3f3dc407	0.7412724
47	0x3f0b6f34	0.5446656
48	0xbdf7a3c4	-0.12091783
49	0x3df31da0	0.11870885
50	0x3ecfa3e9	0.4055474
51	0x3f4e60e2	0.8061658
52	0x3db66f4b	0.08907946
53	0x3e8b25b0	0.2717719
54	0xbd38a1b3	-0.045076083
55	0x3d9bc478	0.07605833
56	0x3e3b64c6	0.18300161
57	0x3d26bacf	0.0407055
58	0xbd951d46	-0.07280974
59	0x3f7cc53a	0.98738444
60	0x3f07fc2d	0.53119165
61	0xbc23a031	-0.009986923
62	0x3e5cc475	0.21559317
63	0x3e8e7017	0.27819893

net.2.weight f4 [1, 64]
0	0x3e9732b4	0.2953087
1	0xbf4e2ed0	-0.8054018
2	0x3f0ce57f	0.55037683
3	0x3e35dd23	0.17760138
4	0x3f013649	0.5047346
5	0x3e3fb129	0.18719925
6	0x3e84a03b	0.25903496
7	0x3f0bd274	0.54618
8	0x3e7c70c2	0.24652389
9	0x3e175d7c	0.14781755
10	0x3ed47e6a	0.41502696
11	0x3eb7cf60	0.35900402
12	0xbee69d3c	-0.45041835
13	0xbe04eae6	-0.12980232
14	0x3eb72682	0.35771567
15	0x3a3eda9f	0.0007280502
16	0x3f2c5734	0.6732056
17	0x3e27ba62	0.16379693
18	0x3ebdb5d4	0.37052786
19	0x3ebdeb3c	0.37093532
20	0x3f10cc91	0.56562144
21	0x3ee0b085	0.43884674
22	0xbdec043f	-0.115242474
23	0x3d5cc0c7	0.053894784
24	0x3ecf0dce	0.4044022
25	0x3f102da9	0.5631967
26	0x3f300dff	0.68771356
27	0x3e9e7bf4	0.30953944
28	0x3f704e52	0.9386951
29	0x3e53e38c	0.20692271
30	0x3e2bb3c4	0.16767794
31	0x3ed11887	0.40839025
32	0x3dd46588	0.10370928
33	0x3ec28aa4	0.379964
34	0x3f3ed7ae	0.7454785
35	0x3f1a9d85	0.60396606
36	0x3efc65ec	0.4929651
37	0x3eaba721	0.33525947
38	0x3efd2074	0.49438822
39	0x3e845ced	0.25852147
40	0x3f9921bf	1.1963423
41	0x3f0a683f	0.54065317
42	0x3e66f325	0.2255369
43	0x3ecd04e5	0.40042797
44	0x3eed3714	0.46331084
45	0x3ebb38af	0.36566684
46	0x3f2dc090	0.6787195
47	0x3edcead7	0.4314792
48	0x3e952eb0	0.29137182
49	0x3ee15778	0.44012046
50	0x3f0e7506	0.55647314
51	0x3f63ac7c	0.88935065
52	0x3e62c4f0	0.22145438
53	0x3eee3c4d	0.4653038
54	0x3e2ebdcd	0.17064591
55	0x3dae93b3	0.08524265
56	0x3db9c688	0.0907107
57	0x3da90cc3	0.08254387
58	0x3e081f63	0.13293223
59	0x3f6df264	0.92947984
60	0x3f19a27c	0.60013556
61	0x3e9f9bee	0.31173652
62	0x3eafbe69	0.3432496
63	0x3edaefe5	0.4276115
